…
    "### Model stracture"
   ]
  },
  {
   "cell_type": "code",
   "execution_count": 26,
   "metadata": {},
   "outputs": [],
   "source": [
    "model = mod.ResNet18_tin()"
   ]
  },
  {
   "cell_type": "code",
   "execution_count": 27,
   "metadata": {},
   "outputs": [
    {
     "name": "stdout",
     "output_type": "stream",
     "text": [
      "----------------------------------------------------------------\n",
      "        Layer (type)               Output Shape         Param #\n",
      "================================================================\n",
      "            Conv2d-1           [-1, 64, 64, 64]           1,728\n",
      "       BatchNorm2d-2           [-1, 64, 64, 64]             128\n",
      "            Conv2d-3           [-1, 64, 64, 64]          36,864\n",
      "       BatchNorm2d-4           [-1, 64, 64, 64]             128\n",
      "            Conv2d-5           [-1, 64, 64, 64]          36,864\n",
      "       BatchNorm2d-6           [-1, 64, 64, 64]             128\n",
      "        BasicBlock-7           [-1, 64, 64, 64]               0\n",
      "            Conv2d-8           [-1, 64, 64, 64]          36,864\n",
      "       BatchNorm2d-9           [-1, 64, 64, 64]             128\n",
      "           Conv2d-10           [-1, 64, 64, 64]          36,864\n",
      "      BatchNorm2d-11           [-1, 64, 64, 64]             128\n",
      "       BasicBlock-12           [-1, 64, 64, 64]               0\n",
      "           Conv2d-13          [-1, 128, 32, 32]          73,728\n",
      "      BatchNorm2d-14          [-1, 128, 32, 32]             256\n",
      "           Conv2d-15          [-1, 128, 32, 32]         147,456\n",
      "      BatchNorm2d-16          [-1, 128, 32, 32]             256\n",
      "           Conv2d-17          [-1, 128, 32, 32]           8,192\n",
      "      BatchNorm2d-18          [-1, 128, 32, 32]             256\n",
      "       BasicBlock-19          [-1, 128, 32, 32]               0\n",
      "           Conv2d-20          [-1, 128, 32, 32]         147,456\n",
      "      BatchNorm2d-21          [-1, 128, 32, 32]             256\n",
      "           Conv2d-22          [-1, 128, 32, 32]         147,456\n",
      "      BatchNorm2d-23          [-1, 128, 32, 32]             256\n",
      "       BasicBlock-24          [-1, 128, 32, 32]               0\n",
      "           Conv2d-25          [-1, 256, 16, 16]         294,912\n",
      "      BatchNorm2d-26          [-1, 256, 16, 16]             512\n",
      "           Conv2d-27          [-1, 256, 16, 16]         589,824\n",
      "      BatchNorm2d-28          [-1, 256, 16, 16]             512\n",
      "           Conv2d-29          [-1, 256, 16, 16]          32,768\n",
      "      BatchNorm2d-30          [-1, 256, 16, 16]             512\n",
      "       BasicBlock-31          [-1, 256, 16, 16]               0\n",
      "           Conv2d-32          [-1, 256, 16, 16]         589,824\n",
      "      BatchNorm2d-33          [-1, 256, 16, 16]             512\n",
      "           Conv2d-34          [-1, 256, 16, 16]         589,824\n",
      "      BatchNorm2d-35          [-1, 256, 16, 16]             512\n",
      "       BasicBlock-36          [-1, 256, 16, 16]               0\n",
      "           Conv2d-37            [-1, 512, 8, 8]       1,179,648\n",
      "      BatchNorm2d-38            [-1, 512, 8, 8]           1,024\n",
      "           Conv2d-39            [-1, 512, 8, 8]       2,359,296\n",
      "      BatchNorm2d-40            [-1, 512, 8, 8]           1,024\n",
      "           Conv2d-41            [-1, 512, 8, 8]         131,072\n",
      "      BatchNorm2d-42            [-1, 512, 8, 8]           1,024\n",
      "       BasicBlock-43            [-1, 512, 8, 8]               0\n",
      "           Conv2d-44            [-1, 512, 8, 8]       2,359,296\n",
      "      BatchNorm2d-45            [-1, 512, 8, 8]           1,024\n",
      "           Conv2d-46            [-1, 512, 8, 8]       2,359,296\n",
      "      BatchNorm2d-47            [-1, 512, 8, 8]           1,024\n",
      "       BasicBlock-48            [-1, 512, 8, 8]               0\n",
      "           Linear-49                  [-1, 200]         102,600\n",
      "================================================================\n",
      "Total params: 11,271,432\n",
      "Trainable params: 11,271,432\n",
      "Non-trainable params: 0\n",
      "----------------------------------------------------------------\n",
      "Input size (MB): 0.05\n",
      "Forward/backward pass size (MB): 45.00\n",
      "Params size (MB): 43.00\n",
      "Estimated Total Size (MB): 88.05\n",
…
